fast_two_stage_psf_correction/checkpoints/super_tiny_epoch_1000.pt (torch, 662585 bytes, 36 tensors)

m_head.weight f4 [16, 2, 3, 3]
-0.1914085 -0.18788429 0.11518543 0.054357447 -0.062455963 -0.20296474 0.0079242615 0.097442664
-0.20432419 -0.2074402 -0.085668944 -0.17996699 0.20211217 0.19499186 -0.055773463 0.08136792
-0.23421456 0.030506438 -0.022306224 -0.22334208 -0.2005176 -0.074757494 0.01923853 0.041353893
0.12011049 -0.14998905 0.15609267 -0.119291194 0.2202011 0.11866913 -0.12956148 0.11754836
0.08079822 -0.0429094 0.1787677 -0.05669535 -0.11651715 0.04126984 -0.2557745 0.21229261
0.217085 0.16278374 0.08282776 -0.12364504 0.22761726 -0.086596295 0.21403699 0.017207012
-0.26218417 -0.2613236 0.019569654 -0.06884414 -0.08506598 -0.2398282 0.0013426257 -0.0032149837
-0.14576496 -0.21476606 0.11199861 -0.122957684 0.14952578 0.08224461 -0.09970346 0.021021103
-0.010497113 0.1982214 -0.06856445 -0.09386515 0.29122868 0.22005433 0.19903731 -0.12666321
0.1883588 0.02977661 -0.100484975 0.15513408 -0.014805981 -0.14857903 0.037777342 0.160639
-0.2150059 0.044947796 -0.23366252 -0.20322856 -0.11821022 0.2484999 0.2015226 -0.14369002
0.04795125 0.17457552 0.19153193 0.19361831 0.2160815 0.19873586 -0.22478801 -0.12158297
-0.118147604 0.099533424 0.05791922 0.043304097 -0.24546503 0.06117024 -0.14822344 -0.17223845
-0.06302131 -0.010650363 0.12929237 0.0065972744 -0.20940666 0.09565214 -0.19221015 0.20973
-0.11941016 0.20607863 -0.16693561 -0.09468897 0.2089815 0.010895793 0.16579781 0.042386647
-0.16574274 -0.19399355 0.11885769 -0.12580615 0.09895057 0.020314828 -0.2683609 -0.15371422
0.25583515 -0.11063669 -0.017442137 -0.13390252 0.1350159 -0.029616948 0.077801146 0.19839166
-0.1472968 -0.19993713 0.1964376 -0.0618222 -0.0029752497 -0.07090281 0.09293225 0.0630458
0.15288544 -0.02382362 0.15958023 0.25204718 -0.15377873 0.052482884 -0.19021742 -0.16791402
0.23124442 -0.11197813 -0.22983588 0.0022171275 0.19477698 -0.23632917 -0.2314828 -0.038100097
0.06928623 0.11205013 -0.118392624 -0.03897177 -0.07824867 -0.09163318 0.11565865 -0.15167005
0.13622186 -0.13715217 -0.12254154 0.15937644 0.089213796 0.054602303 0.16164221 -0.22187379
-0.2233185 -0.23476611 -0.0009541736 0.23940739 -0.17310058 0.15731156 0.015846355 0.17714351
-0.13793711 -0.16645607 -0.015801223 -0.14701879 -0.13964508 0.039277196 -0.07362997 0.11567097
0.114186384 -0.19092053 -0.12143783 -0.23169975 0.17318572 -0.06115706 0.03193061 0.03100974
-0.20236091 0.08134418 0.19681934 0.017629467 0.05008328 0.047065146 0.050359104 -0.114981405
0.11261758 0.19626448 -0.070862725 -0.15306552 0.050457213 0.03242519 0.1329372 0.14609298
0.06860963 -0.13404912 -0.17375927 0.14454897 0.24098413 -0.113956265 0.17278273 0.017633352
-0.13214912 -0.1621015 0.14367577 -0.14150576 -0.23753375 -0.2331759 0.07969456 0.17797093
0.08713418 -0.20408043 0.11825777 0.09681208 -0.045412093 0.0824369 0.037045635 -0.1337536
0.050682012 0.025716918 -0.08378463 0.009684852 0.07112756 -0.03383694 -0.12360052 0.08785133
-0.0815971 0.16281223 -0.029547004 0.19510122 0.17446898 -0.022873135 0.059291963 0.031459544
00000000: 9700 44be bd64 40be 57e6 eb3d eaa5 5e3d
00000010: d3d1 7fbd fdd5 4fbe c3d4 013c 0590 c73d
00000020: 5c3a 51be 346b 54be 3373 afbd 4449 38be
00000030: 7ef6 4e3e f2ab 473e b772 64bd 39a4 a63d
00000040: f1d5 6fbe a3e8 f93c 8bbb b6bc c9b3 64be
00000050: 7c54 4dbe 751a 99bd 1f9a 9d3c b362 293d
00000060: 7dfc f53d bb96 19be c2d6 1f3e f14e f4bd
00000070: 667c 613e cd08 f33d c4ab 04be 32bd f03d
00000080: 8a79 a53d c4c1 2fbd e10e 373e 6239 68bd
00000090: 8ba0 eebd 900a 293d e0f4 82be 3c63 593e
000000a0: 884b 5e3e c8b0 263e 9aa1 a93d 9c39 fdbd
000000b0: 8014 693e 6659 b1bd 832c 5b3e b8f5 8c3c
000000c0: 013d 86be 35cc 85be 8a50 a03c 28fe 8cbd
000000d0: 1337 aebd 8695 75be 0bfb af3a 7ab2 52bb
000000e0: 6943 15be a2eb 5bbe 875f e53d 3dd1 fbbd
000000f0: 491d 193e dd6f a83d 5431 ccbd 7334 ac3c
00000100: 15fc 2bbc 8dfa 4a3e 856b 8cbd 5f3c c0bd
00000110: ed1b 953e ec55 613e 70d0 4b3e 00b4 01be
00000120: 21e1 403e 14ee f33c 11cb cdbd 78db 1e3e
00000130: c994 72bc 1a25 18be 6abc 1a3d 8d7e 243e
00000140: 822a 5cbe 2e1b 383d 3a45 6fbe 261b 50be
00000150: 3318 f2bd c276 7e3e f15b 4e3e 7a23 13be
00000160: 8868 443d edc3 323e f220 443e e143 463e
00000170: 7844 5d3e 6a81 4b3e d42e 66be 7e00 f9bd
00000180: 5ff7 f1bd 2ed8 cb3d b43c 6d3d a35f 313d
00000190: 2f5b 7bbe a58d 7a3d e3c7 17be 475f 30be
000001a0: 5111 81bd dc7e 2ebc 3865 043e f32d d83b
000001b0: b36e 56be 45e5 c33d bdd2 44be 76c3 563e
000001c0: 508d f4bd 4706 533e 2bf1 2abe 4aec c1bd
000001d0: 3fff 553e 4584 323c e7c6 293e 9f9d 2d3d
000001e0: 77b8 29be 3fa6 46be a96b f33d 54d3 00be
000001f0: 99a6 ca3d 486b a63c 9a66 89be 4367 1dbe
00000200: d3fc 823e 7d95 e2bd d0e2 8ebc be1d 09be
00000210: 9c41 0a3e 3e9f f2bc 3556 9f3d 2f27 4b3e
00000220: f9d4 16be 52bc 4cbe f026 493e 4639 7dbd
00000230: 68fc 42bb 7e35 91bd 4353 be3d 281e 813d
00000240: 008e 1c3e c129 c3bc 0069 233e 540c 813e
00000250: 2c78 1dbe 4bf8 563d 5bc8 42be a7f1 2bbe
00000260: 56cb 6c3e ca54 e5bd 195a 6bbe 3a4d 113b
00000270: 9e73 473e 4600 72be d409 6dbe d90e 1cbd
00000280: f0e5 8d3d 8a7a e53d d577 f2bd dda0 1fbd
00000290: d740 a0bd 2daa bbbd 71de ec3d 654f 1bbe
000002a0: be7d 0b3e 9e71 0cbe 0ff7 fabd 9433 233e
000002b0: b9b5 b63d aaa6 5f3d 8985 253e e232 63be
000002c0: 9bad 64be 8766 70be 8221 7aba 3627 753e
000002d0: 4741 31be 4816 213e 37d0 813c 1c65 353e
000002e0: 633f 0dbe 7673 2abe 9171 81bc 188c 16be
000002f0: 1fff 0ebe 20e1 203d 4fcb 96bd e7e4 ec3d
00000300: 8dda e93d ac80 43be 66b4 f8bd b342 6dbe
00000310: 9957 313e d37f 7abd acc9 023d 2308 fe3c
00000320: b337 4fbe c797 a63d 028b 493e ac6b 903c
00000330: 2024 4d3d 62c7 403d 5945 4e3d 5f7b ebbd
00000340: 0ca4 e63d 8ef9 483e 7a20 91bd 35bd 1cbe
00000350: 39ac 4e3d 47d0 043d b020 083e 6699 153e
00000360: 3583 8c3d 2c44 09be f3ed 31be a504 143e
00000370: 8bc4 763e e761 e9bd f5ed 303e d273 903c
00000380: 1952 07be f0fd 25be be1f 133e e3e6 10be
00000390: 0c3c 73be aac5 6ebe e736 a33d 033e 363e
000003a0: 6873 b23d 76fa 50be 2131 f23d 6945 c63d
000003b0: 0802 3abd add4 a83d 2abd 173d b4f6 08be
000003c0: f197 4f3d 49ac d23c 4797 abbd 37ad 1e3c
000003d0: 54ab 913d 9a98 0abd 4522 fdbd 66eb b33d
000003e0: 611c a7bd 40b8 263e 8f0c f2bc 9dc8 473e
000003f0: ffa7 323e 7160 bbbc 21dc 723d b9db 003d

m_down1.0.res.0.weight f4 [16, 16, 3, 3]
-0.046895377 -0.068977006 0.013855352 -0.06161932 -0.0014653805 -0.041574508 0.07437156 -0.050842293
-0.024535803 -0.018132629 0.05129003 0.03089794 0.007107239 -0.07098292 -0.051633645 0.003058716
-0.035396848 -0.04006451 -0.018361475 -0.023799948 -0.004865881 -0.021534488 -4.0401148e-05 -0.029813755
0.013158894 -0.05596055 -0.017824631 -0.043779947 0.022491107 -0.014590507 0.07965486 -0.0237977
0.10237752 0.018602917 0.05357426 0.099819735 0.09412717 0.056609474 0.064996816 -0.06360563
0.06360625 0.0008176302 0.05775624 0.05478309 -0.0017200746 0.06598324 -0.034316085 -0.06265814
-0.05355135 0.0899381 -0.070077226 -0.012607337 -0.02157667 -0.047154076 -0.06750797 -0.065660946
0.024948211 -0.01915394 0.010773463 0.008154155 -0.08989295 0.03744128 -0.050152022 -0.08216067
0.045438834 0.008856223 0.024759198 0.015374791 -0.0782185 -0.061522104 0.034529094 -0.064339146
0.0150385555 0.037165154 0.02031972 0.04029617 -0.040340237 -0.012668156 -0.011311871 -0.025037268
0.040047947 0.044962835 0.069593094 -0.046476495 0.090236425 0.015569866 0.038157392 0.062262088
-0.04667184 -0.058043398 -0.038916145 -0.054055523 0.056414448 -0.012168791 0.046381984 0.040378254
-0.048803955 0.08057987 0.037205007 0.027365806 -0.028583564 0.074183084 0.0077825496 -0.024424644
0.053944375 -0.026746979 0.034900844 0.013526036 -0.020723496 0.007613718 -0.04573625 -0.008161978
0.05501254 0.08681221 -0.01682312 -0.06749137 0.0131917065 -0.07894059 0.0402641 0.03153083
0.051598884 0.07235098 0.0086070625 -0.055641793 0.06993202 0.024293363 0.0019908005 0.053052545
-0.07728812 -0.062966414 -0.045126684 0.0030707412 -0.0022976026 0.065593 0.044183776 0.065524556
-0.0015749917 -0.05398394 -0.009378763 -0.038397785 -0.0331912 0.062098373 0.02702588 0.0008651794
0.013219054 0.0031092765 -0.07211069 0.07202338 0.04440615 0.033417713 -0.07902798 0.0005821156
-0.00032495768 0.023165975 -0.060771093 0.0046924055 -0.028677002 -0.038444255 -0.012021134 0.025419045
0.017428802 0.010836078 0.07099454 -0.0700814 0.0205869 -0.007345477 -0.042420294 -0.06985481
0.07828058 0.047180172 -0.049141444 0.091085 -0.05164891 0.008286128 0.05212457 -0.0069135115
-0.03852777 0.020960532 0.055988755 -0.10558475 -0.052996926 0.001263082 -0.034510244 -0.023072837
0.04578803 0.03956659 0.047909364 -0.06833007 -0.01238416 0.045376413 -0.06446932 0.090483956
-0.08470327 -0.007885766 -0.0832701 -0.020928536 -0.012476631 -0.03266402 0.11855278 0.074157186
-0.054129455 -8.7405806e-07 -0.017701196 0.03990633 0.014357836 0.008781329 0.0333231 0.031825487
-0.04370505 0.017623255 0.078654245 0.033564057 -0.0068006446 -0.11559421 0.023313597 0.017759483
0.06969228 0.009983502 0.11805412 0.03203693 -0.06617874 0.06955141 -0.013875052 0.037039164
0.08546559 -0.08761705 -0.009587391 0.017762847 -0.029370928 -0.009071654 -0.05828278 -0.09165676
0.04895703 0.07475077 0.07010325 -0.022683756 -0.09010861 -0.076539494 -0.05174498 0.021237127
-0.011150614 -0.0736021 -0.0701761 0.06446849 -0.06406797 0.0587555 0.040209435 -0.0151952095
-0.038708135 0.020303141 -0.010457165 0.0018793992 -0.050117936 0.09091774 0.001979231 0.03996041
00000000: 5e15 40bd d143 8dbd 8f01 633c 8a64 7cbd
00000010: 0312 c0ba 084a 2abd 1e50 983d 0240 50bd
00000020: 4fff c8bc e18a 94bc 7f15 523d ad1d fd3c
00000030: d8e3 e83b 7e5f 91bd cd7d 53bd bd74 483b
00000040: 49fc 10bd af1a 24bd ce6a 96bc 1cf8 c2bc
00000050: f871 9fbb 1869 b0bc 6774 29b8 fa3b f4bc
00000060: 6798 573c e436 65bd f604 92bc 9a52 33bd
00000070: 453f b83c 060d 6fbc 1622 a33d 65f3 c2bc
00000080: 4eab d13d 2565 983c af70 5b3d 4a6e cc3d
00000090: bfc5 c03d 56df 673d 0d1d 853d ab43 82bd
000000a0: fe43 823d 3c56 563a cf91 6c3d 3c64 603d
000000b0: 2074 e1ba 3922 873d 068f 0cbd e952 80bd
000000c0: a958 5bbd 7731 b83d a684 8fbd 018f 4ebc
000000d0: 8fc1 b0bc a224 41bd 9e41 8abd 3f79 86bd
000000e0: 3160 cc3c b9e8 9cbc 2e83 303c 0199 053c
000000f0: cc19 b8bd 075c 193d 356c 4dbd da43 a8bd
00000100: 121e 3a3d b119 113c cdd3 ca3c 8ce6 7b3c
00000110: 0531 a0bd 9afe 7bbd 616e 0d3d 3ec4 83bd
00000120: 4664 763c 7d3a 183d 8b75 a63c 990d 253d
00000130: ce3b 25bd 198e 4fbc 6d55 39bc f51a cdbc
00000140: 5109 243d f32a 383d d386 8e3d 235e 3ebd
00000150: e0cd b83d c018 7f3c ed4a 1c3d 8806 7f3d
00000160: f92a 3fbd eabe 6dbd 8966 1fbd 5369 5dbd
00000170: d612 673d 9c5f 47bc 09fb 3d3d ab63 253d
00000180: a8e6 47bd 0f07 a53d 4764 183d 412e e03c
00000190: 1428 eabc 4ded 973d c204 ff3b 3116 c8bc
000001a0: c7f4 5c3d 7b1c dbbc 30f4 0e3d 4f9c 5d3c
000001b0: 52c4 a9bc 7f7c f93b ef55 3bbd d1b9 05bc
000001c0: d454 613d 9aca b13d a4d0 89bc ea38 8abd
000001d0: 0722 583c 9bab a1bd f8eb 243d 7926 013d
000001e0: 5a59 533d c02c 943d a304 0d3c a6e8 63bd
000001f0: 8538 8f3d e002 c73c 1778 023b a04d 593d
00000200: 3c49 9ebd 89f4 80bd c2d6 38bd 7d3e 493b
00000210: 6093 16bb 9f55 863d 0cfa 343d bd31 863d
00000220: f46f ceba 441e 5dbd 62a9 19bc ff46 1dbd
00000230: 7ff3 07bd dd5a 7e3d 6165 dd3c 35cd 623a
00000240: bb94 583c 01c5 4b3b c5ae 93bd fe80 933d
00000250: 39e3 353d 03e1 083d 6cd9 a1bd 1e99 183a
00000260: 155f aab9 92c6 bd3c 1ceb 78bd c0c2 993b
00000270: 08ec eabc b977 1dbd 4af4 44bc 9a3b d03c
00000280: d9c6 8e3c ce89 313c 9665 913d d686 8fbd
00000290: dca5 a83c 54b2 f0bb e7c0 2dbd 0a10 8fbd
000002a0: 9251 a03d ff3f 413d 8a48 49bd c68a ba3d
000002b0: cf8d 53bd 8ac2 073c 9380 553d bd8a e2bb
000002c0: 4ccf 1dbd 6cb5 ab3c 7754 653d d13c d8bd
000002d0: 4e13 59bd 008e a53a 9d5a 0dbd 3f03 bdbc
000002e0: 3b8c 3b3d 9410 223d 9c3c 443d a3f0 8bbd
000002f0: efe6 4abc 9edc 393d 7e08 84bd a74f b93d
00000300: e878 adbd 4d33 01bc 8489 aabd 5272 abbc
00000310: c96a 4cbc b5ca 05bd cdcb f23d b9df 973d
00000320: d9b6 5dbd d0a0 6ab5 1902 91bc d274 233d
00000330: 213d 6b3c 90df 0f3c ce7d 083d 715b 023d
00000340: 1104 33bd a55e 903c 7a15 a13d 777a 093d
00000350: f1d7 debb a8bc ecbd 28fc be3c 567c 913c
00000360: d3ba 8e3d d891 233c 5cc6 f13d 2839 033d
00000370: b888 87bd f870 8e3d 3054 63bc 61b6 173d
00000380: 9508 af3d 9170 b3bd 6f14 1dbc 6483 913c
00000390: 4d9b f0bc 46a1 14bc edb9 6ebd 8ab6 bbbd
000003a0: 2b87 483d ef16 993d 4b92 8f3d 49d3 b9bc
000003b0: dd8a b8bd bdc0 9cbd 8bf2 53bd 7cf9 ad3c
000003c0: 11b1 36bc b3bc 96bd 7db8 8fbd 0e08 843d
000003d0: 1136 83bd 9ba9 703d a6b2 243d 54f5 78bc
000003e0: 6c8c 1ebd c652 a63c 8754 2bbc 2c56 f63a
000003f0: 7748 4dbd 1433 ba3d fcb5 013b 87ad 233d

m_down1.0.res.2.weight f4 [16, 16, 3, 3]
-0.054344375 -0.020315612 -0.03217099 0.057062555 0.027958615 0.07337798 0.104902625 -0.043980822
0.020835752 -0.049183045 -0.07342486 0.009809692 0.035407454 -0.09101499 0.06554421 -0.09107055
0.053622093 -0.08586261 -0.06370358 0.0329026 -0.08996199 0.067575805 0.026619615 0.07143108
-0.0043827686 0.051313795 -0.058825783 0.121731386 0.037870117 0.058603574 -0.05455828 -0.009614283
0.07453784 -0.09489272 0.06387822 0.024152774 -0.072497614 0.073374666 -0.003586828 -0.055435922
0.06838407 -0.018182686 0.04219837 0.07183989 -0.0026951765 -0.067145765 -0.05326402 0.026837857
-0.0541128 -0.0436503 -0.05401806 0.11081081 -0.04058084 0.07250076 0.010723719 -0.022872794
0.053548973 -0.06294654 -0.060437754 0.03806712 -0.05091885 0.08936799 -0.010904441 0.020354394
-0.019153323 -0.0579079 0.004907237 0.017110584 -0.05786693 -0.049129024 -0.08888217 0.039192613
-0.061452743 0.009047133 0.046601012 0.10186226 0.1020635 0.12981315 0.050696608 0.04617786
0.06597977 0.099112056 -0.06919819 0.021919686 0.052536458 0.022185719 -0.039728615 0.027866019
-0.025900114 0.049089126 -0.03999427 -0.016883066 1.6320708e-05 -0.041689035 0.091908336 0.046346456
-0.0727596 0.1166237 0.05734954 0.0061546713 -0.037433557 0.048242267 0.07761822 0.024180312
0.01072839 -0.008660859 0.010512614 -0.023908352 0.06801397 0.029926674 -0.037414756 0.0059299218
0.11767625 0.03894189 -0.03205065 0.06991477 0.014542219 -0.063023046 -0.110529244 0.024985772
0.084912986 -0.006536311 -0.08540219 0.022588616 0.068416975 -0.112390645 -0.0044969837 -0.05863285
-0.027631724 0.068886355 0.06152916 0.002495247 0.0479225 0.0001277871 -0.025378078 0.050165553
0.0962868 0.07767891 0.052475676 0.0641502 0.02842209 0.04715275 0.017576512 -0.06873804
-0.056590654 -0.03259937 0.006821596 -0.08104833 0.060098045 -0.021502443 0.01115509 -0.00626957
-0.04189384 -0.052340776 -0.060162786 -0.0041936687 -0.04583962 -0.047971655 0.029368695 0.060858335
-0.049635805 0.033691116 0.07828247 -0.0947741 -0.02662338 0.102891214 -0.04704132 0.013542782
0.009019413 0.036294755 0.030109283 -0.03329032 0.07809018 -0.0072825644 0.02452726 -0.0422623
-0.043670904 -0.039388344 -0.025545461 -0.024044374 -0.08879417 -0.05235624 -0.007719342 -0.12699392
0.01106054 0.10514949 0.058173656 -0.041363906 0.09614925 -0.01700986 0.0018979786 -0.045843396
0.04583575 -0.044088036 0.0014250483 0.047526672 -0.07463555 -0.030658234 -0.074223205 0.09386633
0.05587368 0.003268661 0.09900919 -0.04399089 -0.08416258 0.083707705 0.020164201 0.068553716
-0.033139847 -0.056056153 -0.054198384 0.038274 0.013568665 0.012914576 0.013480554 -0.03261394
-0.06742184 0.041085713 0.019752974 0.0028311908 -0.06706149 -0.032806106 -0.062255923 -0.010624821
-0.076041624 -0.0049393643 0.09301154 0.078192726 -0.04858777 0.028204389 -0.04750078 0.018107453
-0.008063138 0.026194787 0.058595728 0.033677775 0.062063564 -0.019411337 -0.11710072 0.034548152
-0.103049584 -0.13783002 0.010229284 0.10309955 0.05194329 -0.045930788 0.08321738 0.06699115
-0.026797077 -0.042205516 -0.017353898 -0.01969682 -0.029870927 0.03156167 -0.00281655 -0.009233655
00000000: 3598 5ebd ed6c a6bc bac5 03bd 6dba 693d
00000010: 7709 e53c 3247 963d 30d7 d63d 3c25 34bd
00000020: bdaf aa3c 2974 49bd c65f 96bd d5b8 203c
00000030: 6807 113d 1166 babd 0b3c 863d 3283 babd
00000040: d7a2 5b3d bcd8 afbd 0677 82bd e0c4 063d
00000050: fe3d b8bd 2f65 8a3d 6111 da3c 754a 923d
00000060: 549d 8fbb 6a2e 523d 4ef3 70bd 4e4e f93d
00000070: b21d 1b3d 4d0a 703d 8178 5fbd 3a85 1dbc
00000080: 4ca7 983d 1d57 c2bd 96d2 823d 0adc c53c
00000090: a179 94bd 7545 963d fd10 6bbb c710 63bd
000000a0: f30c 8c3d dbf3 94bc 33d8 2c3d cb20 933d
000000b0: 8fa1 30bb b883 89bd 5f2b 5abd 11db db3c
000000c0: 62a5 5dbd a8ca 32bd 0b42 5dbd c7f0 e23d
000000d0: 1838 26bd 477b 943d 8ab2 2f3c ba5f bbbc
000000e0: 2b56 5b3d 1eea 80bd 948d 77bd 45ec 1b3d
000000f0: 4990 50bd 9106 b73d 8aa8 32bc 42be a63c
00000100: 6ee7 9cbc d630 6dbd e3cc a03b 7f2b 8c3c
00000110: e005 6dbd 843b 49bd db07 b6bd 6f88 203d
00000120: dfb5 7bbd 6d3a 143c b4e0 3e3d 299d d03d
00000130: ab06 d13d bded 043e 3fa7 4f3d ff24 3d3d
00000140: 6720 873d 43fb ca3d c8b7 8dbd ea90 b33c
00000150: 7830 573d d3be b53c 79ba 22bd 4747 e43c
00000160: 7a2c d4bc ae11 493d 08d1 23bd 5b4e 8abc
00000170: 74e8 8837 1fc2 2abd 703a bc3d c8d5 3d3d
00000180: fc02 95bd 68d8 ee3d 5ae7 6a3d 20ad c93b
00000190: ee53 19bd af99 453d 4df6 9e3d ca15 c63c
000001a0: 21c6 2f3c 47e6 0dbc 193d 2c3c 73db c3bc
000001b0: e94a 8b3d c928 f53c 3740 19bd ca4f c23b
000001c0: 3f00 f13d 8881 1f3d 8b47 03bd 7a2f 8f3d
000001d0: 7d42 6e3c 3a12 81bd 285d e2bd f6ae cc3c
000001e0: dce6 ad3d 8d2e d6bb 58e7 aebd c30b b93c
000001f0: 331e 8c3d 112d e6bd 6f5b 93bb 0029 70bd
00000200: ed5b e2bc 4a14 8d3d 0006 7c3d 4c87 233b
00000210: 624a 443d 97fe 0539 b0e5 cfbc 657a 4d3d
00000220: 0432 c53d 1f16 9f3d bcf0 563d 2e61 833d
00000230: 71d5 e83c 3e23 413d 9efc 8f3c 88c6 8cbd
00000240: 9acb 67bd eb86 05bd b287 df3b abfc a5bd
00000250: 5e29 763d e425 b0bc d7c3 363c f770 cdbb
00000260: e098 2bbd 4863 56bd 416d 76bd 0b6b 89bb
00000270: 53c2 3bbd ed7d 44bd 9e96 f03c 9746 793d
00000280: ea4e 4bbd b2ff 093d 8f52 a03d ec18 c2bd
00000290: 4619 dabc a1b8 d23d 66ae 40bd 8be2 5d3c
000002a0: 29c6 133c cfa9 143d bea7 f63c 6e5b 08bd
000002b0: bfed 9f3d 94a2 eebb 64ed c83c 3c1b 2dbd
000002c0: 43e0 32bd ac55 21bd b744 d1bc b5f8 c4bc
000002d0: b8d9 b5bd 7f73 56bd 89f2 fcbb b20a 02be
000002e0: 4437 353c 9e58 d73d 8047 6e3d 336d 29bd
000002f0: e6e9 c43d 4358 8bbc 98c5 f83a 49c6 3bbd
00000300: 44be 3b3d a895 34bd b0c8 ba3a 54ab 423d
00000310: 86da 98bd fa26 fbbc 5602 98bd fe3c c03d
00000320: cddb 643d 0837 563b 55c5 ca3d cb2f 34bd
00000330: 6e5d acbd f26e ab3d 652f a53c e465 8c3d
00000340: a6bd 07bd 239b 65bd 20ff 5dbd 33c5 1c3d
00000350: 1b4f 5e3c a897 533c 8bdd 5c3c 3296 05bd
00000360: 7614 8abd 7e49 283d fdd0 a13c 808b 393b
00000370: 8957 89bd b25f 06bd 1100 7fbd bb13 2ebc
00000380: b6bb 9bbd 64da a1bb d67c be3d 8223 a03d
00000390: f803 47bd e40c e73c 2e90 42bd 1556 943c
000003a0: 411b 04bc 7396 d63c 1302 703d b5f1 093d
000003b0: 5d36 7e3d 8604 9fbc 81d2 efbd 5d82 0d3d
000003c0: a90b d3bd 5023 0dbe ba98 273c db25 d33d
000003d0: 7dc2 543d ec21 3cbd e06d aa3d a832 893d
000003e0: 8b85 dbbc b1df 2cbd c329 8ebc 3a5b a1bc
000003f0: e0b3 f4bc cf46 013d de95 38bb c248 17bc

m_down1.1.res.0.weight f4 [16, 16, 3, 3]
0.07623028 -0.037478857 -0.03171794 -0.06938147 0.048382677 0.05294655 -0.07611537 0.06879327
-0.03786559 -0.13260685 0.01875743 0.0501763 0.016157756 0.07715718 0.07394859 -0.051480435
0.09989744 0.043763738 -0.02457064 0.041580178 -0.095352225 0.049799398 0.0715923 -0.07417189
-0.042132076 -0.0012622745 0.008550904 0.0005307388 0.06156284 0.08158175 0.0246554 0.029668024
0.04318706 0.00723194 0.0310575 -0.019335607 0.110325366 -0.06366283 -0.07785641 -0.045307286
-0.13691367 -0.11609692 0.057264853 0.08747631 -0.02843256 -0.03340047 0.07709208 -0.098834954
-0.034924865 -0.083675206 -0.054472446 0.02642538 -0.05093313 -0.04697367 -0.1752861 -0.03570513
0.07360804 0.03015823 0.047073267 0.04489498 0.024416637 -0.065821506 0.011377616 0.03849209
-0.033827152 0.036740642 -0.004727595 -0.008789581 0.12015393 0.085816 -0.00845399 0.018640654
-0.009953259 0.07047928 -0.010549514 0.0055079213 0.036403846 -0.08938839 0.04349143 0.00069077837
-0.04305224 -0.027229358 0.057248484 -0.051575683 0.01967442 0.06819396 0.03318055 0.010810559
-0.02220951 -0.08567904 0.11352055 -0.005791492 0.016259879 0.082088776 -0.022374226 0.03969738
0.015915245 -0.076164745 -0.042586118 -0.02991635 -0.11668104 0.024773797 0.022014791 -0.074106455
-0.015157648 0.025619362 -0.070771664 0.0070840567 0.0009866504 -0.13112646 -0.029185778 -0.048811495
0.005154897 0.018792234 0.05208652 0.09628804 0.040991105 0.018723948 -0.08276332 -0.0012724411
0.06962596 -0.038489494 -0.021183575 0.022444274 0.0004503101 -0.00702718 -0.0031533951 -0.005989075
0.081883885 0.064532846 -0.05323705 -0.009071776 -0.011920395 0.06205539 -0.033325817 0.00091135065
-0.04300263 -0.0476821 0.052126087 -0.032725986 -0.078739196 0.10739671 0.005306199 0.06600712
-0.021908037 0.08108194 -0.048042163 -0.051486082 0.0544933 -0.02952947 0.07007476 -0.02146834
-0.061167903 -0.03542813 -0.07208712 -0.027794486 -0.04193186 -0.004415312 -0.0032196608 0.08155903
0.009203848 -0.03589668 0.060763672 -0.05168513 0.055445448 -0.0067236195 0.015663093 0.06589223
-0.06264715 -0.013429364 0.0614838 -0.055996917 -0.005116117 -0.057823565 -0.02157634 0.041825324
-0.017768465 -0.060521513 -0.057046648 -0.034453187 -0.013534414 -0.06320045 -0.028701492 0.009274572
-0.012283484 0.04133319 -0.026272247 0.09146574 -0.048113227 0.019366529 0.0412783 -0.01458285
0.0019947167 -0.0010688865 0.011396744 -0.007206782 0.010498357 0.039990254 -0.08056995 -0.01644094
0.09189953 -0.055364963 -0.014550809 -0.0255497 0.032980848 -0.034865085 0.009172652 -0.05437617
-0.042683117 0.041178163 0.024110727 -0.06533107 -0.016706308 -0.010076705 -0.006683275 -0.07098072
0.059003573 -0.034651514 0.08950094 -0.042807613 0.008869615 -0.08754741 0.04768339 -0.015629485
-0.04275315 -0.025870532 0.05548063 0.033623897 -0.033863597 0.07647843 0.042522132 0.070238546
0.031609565 -0.004420688 0.021885335 -0.045670554 -0.08062551 -0.0827952 -0.0021588954 -0.042516194
0.019851398 0.0064150696 -0.019598518 -0.07362694 0.06910452 0.007201087 0.01788721 0.032602374
0.036161534 0.07382444 -0.053322125 0.05321571 0.04991045 0.022927841 -0.031471785 -0.035908937
00000000: 9f1e 9c3d 6e83 19bd acea 01bd df17 8ebd
00000010: ea2c 463d 7bde 583d 60e2 9bbd 7ce3 8c3d
00000020: f318 1bbd 17ca 07be 2fa9 993c aa85 4d3d
00000030: 455d 843c 9504 9e3d 5c72 973d 26dd 52bd
00000040: 0797 cc3d 9b41 333d 5e48 c9bc fa4f 2a3d
00000050: 0748 c3bd 74fa 4b3d fc9e 923d 6fe7 97bd
00000060: af92 2cbd e772 a5ba 1719 0c3c 4721 0b3a
00000070: 5129 7c3d 5514 a73d 1ffa c93c 5b0a f33c
00000080: eae4 303d e9f9 ec3b 4c6c fe3c b565 9ebc
00000090: 44f2 e13d a861 82bd 2e73 9fbd 2294 39bd
000000a0: 1933 0cbe 39c4 edbd 8d8e 6a3d c826 b33d
000000b0: 66eb e8bc eece 08bd 74e2 9d3d fb69 cabd
000000c0: 600d 0fbd e85d abbd 801e 5fbd 0a7a d83c
000000d0: 429f 50bd 7767 40bd 337e 33be 8b3f 12bd
000000e0: d0bf 963d 640e f73c e6cf 403d cce3 373d
000000f0: 6605 c83c 6dcd 86bd 2e69 3a3c e2a9 1d3d
00000100: 578e 0abd 5b7d 163d f1e9 9abb 2d02 10bc
00000110: 4313 f63d 4dc0 af3d 9b82 0abc 49b4 983c
00000120: fe12 23bc 7157 903d ded7 2cbc cb7b b43b
00000130: 331c 153d 4311 b7bd 1224 323d 5a15 353a
00000140: 8c57 30bd 1a10 dfbc 637d 6a3d 0641 53bd
00000150: 402c a13c 46a9 8b3d 54e8 073d c51e 313c
00000160: b8f0 b5bc 7e78 afbd 767d e83d 8ec6 bdbb
00000170: 7033 853c 291e a83d 274a b7bc b899 223d
00000180: b060 823c 43fc 9bbd c86e 2ebd 2213 f5bc
00000190: 78f6 eebd 6bf2 ca3c 5d58 b43c 20c5 97bd
000001a0: c957 78bc b2df d13c bcf0 90bd 6021 e83b
000001b0: 7e52 813a 0446 06be 0317 efbc 90ee 47bd
000001c0: 69ea a83b 2cf2 993c ad58 553d aa32 c53d
000001d0: 4ae6 273d f762 993c d17f a9bd 0ac8 a6ba
000001e0: 0e98 8e3d 29a7 1dbd 2d89 adbc 0edd b73c
000001f0: 9917 ec39 4244 e6bb 31a9 4ebb 0140 c4bb
00000200: bdb2 a73d cc29 843d 180f 5abd c9a1 14bc
00000210: c34d 43bc cb2d 7e3d a780 08bd b5e7 6e3a
00000220: 8723 30bd 4e4e 43bd 2a82 553d af0b 06bd
00000230: 0442 a1bd cef2 db3d a0df ad3b be2e 873d
00000240: 7c78 b3bc 4a0e a63d dcc7 44bd 12e3 52bd
00000250: 5e34 5f3d c9e7 f1bc 5b83 8f3d 5fde afbc
00000260: 328b 7abd 161d 11bd 69a2 93bd 43b1 e3bc
00000270: bec0 2bbd 52ae 90bb f200 53bb 6c08 a73d
00000280: bdcb 163c 6608 13bd 54e3 783d c9b3 53bd
00000290: c41a 633d cf51 dcbb e34f 803c 81f2 863d
000002a0: 264d 80bd d606 5cbc 70d6 7b3d 065d 65bd
000002b0: 1aa5 a7bb 67d8 6cbd ddc0 b0bc 0851 2b3d
000002c0: 2c8f 91bc 68e5 77bd bfa9 69bd c91e 0dbd
000002d0: 72bf 5dbc 3d6f 81bd 641f ebbc 60f4 173c
000002e0: ab40 49bc fe4c 293d e538 d7bc 6452 bb3d
000002f0: 6012 45bd 8ea6 9e3c 6f13 293d e8ec 6ebc
00000300: cbb9 023b e119 8cba 69b9 3a3c de26 ecbb
00000310: 4d01 2c3c d2cc 233d dc01 a5bd 26af 86bc
00000320: d235 bc3d 5fc6 62bd 8466 6ebc 9b4d d1bc
00000330: ed16 073d b1ce 0ebd e448 163c 8cb9 5ebd
00000340: 7ed4 2ebd 6faa 283d dc83 c53c 4ccc 85bd
00000350: abdb 88bc c418 25bc 60ff dabb 575e 91bd
00000360: bbad 713d bfee 0dbd 454c b73d 0957 2fbd
00000370: dd51 113c 0e4c b3bd a94f 433d 6809 80bc
00000380: ed1d 2fbd 70ee d3bc a83f 633d 36b9 093d
00000390: 8eb4 0abd b9a0 9c3d b02b 2e3d 3ad9 8f3d
000003a0: 0879 013d 6bdb 90bb e048 b33c 0c11 3bbd
000003b0: fd1e a5bd 8890 a9bd 417c 0dbb 7625 2ebd
000003c0: 669f a23c 8135 d23b 128d a0bc b9c9 96bd
000003d0: ac86 8d3d 19f7 eb3b 3388 923c 118a 053d
000003e0: 1e1e 143d 4531 973d 4d68 5abd b7f8 593d
000003f0: e66e 4c3d 2bd3 bb3c 8fe8 00bd 4015 13bd

m_down1.1.res.2.weight f4 [16, 16, 3, 3]
-0.0505066 -0.032616626 -0.046839073 -0.019531567 -0.046009485 -0.06834423 -0.045840863 0.00024535545
0.045712378 0.07049283 -0.07673968 -0.033181436 -0.04852726 0.022029102 -0.0964986 0.0121719055
0.012417185 -0.011113037 0.028308908 -0.00026332054 0.05476446 0.12991811 0.07207256 0.09848735
0.06648416 -0.022005564 0.018277608 0.13821322 -0.052986782 0.0009061913 -0.025045438 0.12922339
0.053194042 -0.11457623 -0.016850779 0.048552867 -0.06843427 -0.060629006 -0.053891536 0.124724224
0.014914124 -0.0269852 -0.02736471 -0.0100409165 -0.03881047 0.071682036 0.047280375 0.040099576
-0.024096465 -0.09130811 -0.03365141 -0.037624437 -0.020040039 -0.040992983 0.05118023 0.030609068
0.036123253 -0.08138149 -0.05406621 0.0027280252 -0.06647514 -0.085567445 -0.04905824 -0.08442957
-0.013930985 0.023996195 0.006074369 -0.06163001 -0.041020975 0.083487 -0.06922835 -0.083390504
-0.030490676 0.053583395 -0.013596893 0.067017436 -0.003389254 0.060088113 -0.041997008 -0.013410866
-0.07594255 0.08007474 0.0178252 0.016218029 -0.043512117 0.08543397 0.09416394 -0.027906625
0.056273926 -0.060483113 0.013139279 -0.00958893 0.044853967 -0.06487447 -0.0663206 0.096695796
-0.029066691 -0.07125025 0.014288844 0.09333691 0.12118192 0.010872545 0.03304917 -0.031158173
0.07975645 0.05241804 -0.07950664 -0.046738148 0.012142407 0.013083173 -0.104908824 -0.07608175
-0.018669132 -0.0058909245 -0.08601423 0.025431179 0.014238936 -0.02995288 0.08944355 -0.062991284
0.06966561 0.11472731 -0.055387534 -0.057359196 -0.04694431 0.049634296 -0.114701636 -0.02632288
-0.11313625 0.039776627 -0.008640298 -3.920976e-05 0.041739266 0.024426132 0.029028663 0.01594974
-0.014804811 -0.13609315 -0.06098445 0.023577867 0.014228055 0.018040802 0.027414398 0.008387171
-0.12615591 0.0016718062 0.01647562 -0.032252047 0.024177974 0.031457648 -0.05818198 0.03625066
-0.0031964232 -0.044220332 0.04898473 -0.060984936 -0.012721684 -0.039306674 -0.05704718 -0.0004867357
-0.026804274 0.076588996 0.06348725 0.0071618324 -0.062645264 0.015812285 -0.12831788 -0.07081345
-0.13225731 -0.13810328 -0.009819362 -0.0320092 0.013094078 -0.11257091 -0.034311958 -0.0009400054
0.04775213 0.029701125 0.039742876 0.06074396 0.011064673 -0.04246449 0.10116169 0.016711203
-0.02429445 -0.018875176 -0.09315742 -0.12408606 0.12673688 0.00397954 -0.02608539 0.0750316
-0.0020614157 -0.009320718 -0.06451591 -0.073922366 0.038051877 0.047253504 0.01563229 0.0992967
-0.021596754 -0.013280378 0.0560001 0.026294928 -0.025124002 0.07650609 -0.014867897 -0.0167735
-0.07009785 -0.018362658 -0.017100964 0.033335827 -0.067137755 -0.07097966 0.11154998 -0.0039464133
0.022050202 0.034158576 0.08591031 0.01571281 -0.08372036 -0.057065662 -0.01860716 0.00622383
0.098317385 -0.041743293 0.015379787 -0.007518549 -0.055300202 0.045334555 0.014984463 -0.067521244
-0.021258606 0.028058445 0.009183146 0.0036886493 0.09880756 0.10809186 -0.06774742 0.036418527
-0.0066120354 0.044220444 0.06735112 -0.054930322 0.055926688 -0.057983644 -0.09341349 -0.07459012
-0.059136767 -0.086507075 -0.0074851937 -0.035366617 0.08509672 -0.018109126 -0.0027029987 0.089366265
00000000: 02e0 4ebd 0399 05bd 54da 3fbd aa00 a0bc
00000010: 7174 3cbd 0ff8 8bbd a1c3 3bbd 0da3 8039
00000020: e73c 3b3d 8b5e 903d b129 9dbd 42e9 07bd
00000030: 85c4 46bd 6076 b43c 0fa1 c5bd ac6c 473c
00000040: 7371 4b3c 7513 36bc 15e8 e73c 490e 8ab9
00000050: b350 603d 4109 053e c79a 933d bcb3 c93d
00000060: d928 883d 0345 b4bc ecba 953c c487 0d3e
00000070: ab08 59bd 788d 6d3a 172c cdbc 2353 043e
00000080: ffe1 593d f1a6 eabd a50a 8abc 5fdf 463d
00000090: 4427 8cbd 1f56 78bd 5fbd 5cbd 6a6f ff3d
000000a0: 5f5a 743c 1110 ddbc f52b e0bc a882 24bc
000000b0: baf7 1ebd 08ce 923d 11a9 413d 743f 243d
000000c0: f365 c5bc bfff babd 10d6 09bd 151c 1abd
000000d0: 022b a4bc 42e8 27bd 5ca2 513d debf fa3c
000000e0: faf5 133d 57ab a6bd 8874 5dbd abc8 323b
000000f0: 1e24 88bd fc3d afbd 4bf1 48bd 69e9 acbd
00000100: c93e 64bc ab93 c43c 800b c73b c06f 7cbd
00000110: 9c05 28bd 3bfb aa3d 98c7 8dbd a4c8 aabd
00000120: 95c7 f9bc 437a 5b3d 81c5 5ebc 7040 893d
00000130: 3f1e 5ebb f41e 763d 0e05 2cbd 40b9 5bbc
00000140: c587 9bbd 3afe a33d 2706 923c acdb 843c
00000150: c339 32bd 01f8 ae3d 06d9 c03d 6f9c e4bc
00000160: 7d7f 663d 24bd 77bd 2146 573c e31a 1dbc
00000170: cbb8 373d e8dc 84bd 18d3 87bd 7208 c63d
00000180: 451d eebc a7eb 91bd c11b 6a3c 6c27 bf3d
00000190: 3a2e f83d c222 323c 915e 073d 6d3f ffbc
000001a0: 5a57 a33d 4cb4 563d 61d4 a2bd 8070 3fbd
000001b0: f2f0 463c ce5a 563c 70da d6bd c0d0 9bbd
000001c0: 02f0 98bc a808 c1bb 3b28 b0bd 0c55 d03c
000001d0: 6d4a 693c be5f f5bc 2e2e b73d 9301 81bd
000001e0: d8ac 8e3d 27f6 ea3d 0ade 62bd 7af1 6abd
000001f0: ad48 40bd 554d 4b3d b1e8 eabd 15a3 d7bc
00000200: fab3 e7bd d1ec 223d 0990 0dbc 2975 24b8
00000210: cbf6 2a3d 5019 c83c 85cd ed3c 07a9 823c
00000220: e18f 72bc 015c 0bbe d5ca 79bd 5f26 c13c
00000230: ca1c 693c 4eca 933c 2994 e03c 586a 093c
00000240: 042f 01be 8220 db3a e1f7 863c b91a 04bd
00000250: e310 c63c bcd9 003d 3a50 6ebd 927b 143d
00000260: 157b 51bb 6120 35bd 36a4 483d 57cb 79bd
00000270: 9c6e 50bc 0900 21bd 4eaa 69bd 8f30 ffb9
00000280: a394 dbbc b1da 9c3d 9a05 823d cead ea3b
00000290: 294c 80bd c488 813c c365 03be a406 91bd
000002a0: 766e 07be f26a 0dbe 64e1 20bc 141c 03bd
000002b0: 8b88 563c 948b e6bd b28a 0cbd b26a 76ba
000002c0: bd97 433d c64f f33c 6dc9 223d a9ce 783d
000002d0: 9a48 353c 3fef 2dbd dc2d cf3d efe5 883c
000002e0: 2805 c7bc 1da0 9abc 51c9 bebd d520 febd
000002f0: 50c7 013e cd66 823b 07b1 d5bc 2baa 993d
00000300: d118 07bb edb5 18bc eb20 84bd 9c64 97bd
00000310: 49dc 1b3d e48c 413d 4a0f 803c 115c cb3d
00000320: adeb b0bc f195 59bc 5c60 653d 7668 d73c
00000330: dad0 cdbc 3aaf 9c3d 7b98 73bc 9468 89bc
00000340: 768f 8fbd 496d 96bc 5217 8cbc 268b 083d
00000350: 857f 89bd c95d 91bd 5174 e43d ea50 81bb
00000360: a0a2 b43c dde9 0b3d bff1 af3d 27b8 803c
00000370: 9575 abbd afbd 69bd 0b6e 98bc 45f1 cb3b
00000380: a05a c93d 04fb 2abd 81fb 7b3c 295e f6bb
00000390: 7782 62bd bab0 393d 6581 753c 9448 8abd
000003a0: 8726 aebc d3da e53c e874 163c 44bd 713b
000003b0: 9e5b ca3d 445f dd3d 29bf 8abd 982b 153d
000003c0: c6a9 d8bb 7f20 353d 62ef 893d 9efe 60bd
000003d0: 6213 653d 4280 6dbd 924f bfbd b4c2 98bd
000003e0: 6539 72bd 9f2a b1bd 5b46 f5bb 96dc 10bd
000003f0: 3047 ae3d 9759 94bc cb24 31bb a905 b73d

m_down1.2.weight f4 [16, 16, 2, 2]
0.103230365 0.08678456 -0.10147261 -0.119431004 -0.11470725 0.10687284 -0.036853313 -0.00306578
-0.0118633825 0.04160434 -0.036035694 -0.08886756 0.041798245 0.027277052 -0.07966686 -0.029249217
-0.06792098 -0.08310756 -0.12063623 -0.0242146 0.04808309 0.031414386 -0.1148058 -0.018737186
-0.11333994 -0.01865183 -0.06335578 -0.0860001 -0.028185606 -0.12395839 0.06491642 0.06662247
0.07197371 0.099747755 -0.0053978693 -0.012885339 0.0075085307 -0.017225752 0.03149988 0.007106193
0.05272662 -0.010699156 0.11093534 -0.0635627 -0.064769335 0.0127334865 -0.04693163 0.040877767
0.026681056 -0.10317053 0.12739964 -0.08785785 0.010684971 -0.08839184 -0.11443812 0.047788482
-0.046882655 -0.10327337 -0.06759174 0.09352628 0.012440966 0.079657555 0.06954139 0.10773651
0.123616934 0.016905697 -0.116618134 0.088284194 0.11343746 -0.11138159 0.014218841 0.010164985
-0.053534776 -0.043285243 -0.09760856 -0.053004738 -0.04123872 -0.020111423 -0.0020926236 0.044470012
0.034384605 0.09718996 -0.12907362 0.027985813 -0.055594724 -0.01484091 -0.0058267186 -0.0075571365
0.08119186 -0.10520726 -0.017787466 -0.071042664 -0.062402908 -0.011418437 -0.08915379 0.074042276
0.016452447 -0.07237218 -0.018067164 0.020166133 -0.055662934 0.020889007 -0.11263616 0.112819284
0.013944443 0.115043655 0.050461225 -0.014851887 -0.058725964 0.11342417 0.07506532 -0.10249971
-0.12923825 0.08686828 -0.12029439 0.09342256 -0.114057936 -0.031842258 0.02898122 0.06009784
-0.09338827 -0.053992525 0.0761968 -0.09932956 -0.027853226 0.11761481 0.026305234 0.08592524
0.043848176 0.03790565 -0.014641627 0.097000845 0.101224944 -0.12114882 -0.04942983 -0.025621427
-0.048365057 -0.12531762 0.08346832 -0.05428994 0.03966141 0.05544786 -0.087051935 0.06367388
-0.12704855 0.003364397 -0.106433645 0.114911646 -0.061930712 -0.06785064 -0.11026187 0.02053795
0.11122868 -0.017948255 -0.12576713 -0.1311898 0.051750634 0.04234852 -0.054816537 0.0070294463
0.12941411 0.08708834 0.06396582 0.11691885 0.078157395 -0.06996662 -0.094858766 0.10489532
0.06262544 0.038808558 -0.086462535 0.052362677 -0.005997717 0.07295409 -0.13505025 -0.0985506
-0.002405082 0.08646836 -0.098248616 -0.12486721 0.045582354 0.057857767 -0.07209353 0.054372147
-0.08012097 0.012497696 -0.055585705 0.10881561 -0.13495952 0.06585106 0.1089299 -0.022564614
0.10961639 0.0041628256 -0.07297697 0.08498859 -0.03931578 0.08276354 0.087654985 0.104853414
0.06538758 -0.065110266 -0.10880124 0.11387841 0.03852971 -0.09417615 0.112825006 -0.08451462
-0.040592566 0.084760614 0.080438435 0.10753665 0.10601218 0.00097321265 0.077992454 0.14730458
-0.103269696 0.1298506 -0.09731925 0.02504068 0.08287184 -0.099289656 -0.038798355 -0.09232754
0.042311948 -0.0578555 0.041616928 -0.020234508 -0.061576348 -0.00047741298 0.11662465 0.11054425
-0.01381731 0.038381886 0.04697162 -0.06470857 0.013489573 -0.060697384 -0.13478528 0.01538671
0.11359458 0.15344149 -6.794384e-05 0.11119083 -0.022827957 0.11203174 -0.077742435 0.025192933
0.002044687 0.037047874 0.08631953 -0.015283767 0.10229037 -0.029499333 0.03245112 -0.06488363
00000000: 716a d33d 1abc b13d dfd0 cfbd 3e98 f4bd
00000010: a2eb eabd 26e0 da3d 80f3 16bd 41eb 48bb
00000020: a25e 42bc 5069 2a3d 2a9a 13bd 3200 b6bd
00000030: a334 2b3d 2074 df3c 6128 a3bd 0e9c efbc
00000040: 281a 8bbd 4c34 aabd 2110 f7bd b25d c6bc
00000050: c6f2 443d 5fac 003d 4e1f ebbd ba7e 99bc
00000060: c51e e8bd b9cb 98bc adc0 81bd d220 b0bd
00000070: 80e5 e6bc e5dd fdbd e6f2 843d 5d71 883d
00000080: f466 933d 8d48 cc3d 9ce0 b0bb 071d 53bc
00000090: 1f0a f63b 051d 8dbc 0506 013d 11db e83b
000000a0: def7 573d 834b 2fbc 1132 e33d 292d 82bd
000000b0: c9a5 84bd 1da0 503c 613b 40bd 726f 273d
000000c0: 3b92 da3c 124b d3bd 0d75 023e d1ee b3bd
000000d0: 0410 2f3c c806 b5bd 885e eabd dbbd 433d
000000e0: 0708 40bd fd80 d3bd 8a6d 8abd b58a bf3d
000000f0: 32d5 4b3c 8023 a33d b76b 8e3d f6a4 dc3d
00000100: e02a fd3d d17d 8a3c 7dd5 eebd 58ce b43d
00000110: e651 e83d 081c e4bd 24f6 683c 0a8b 263c
00000120: 4847 5bbd de4b 31bd ffe6 c7bd 7f1b 59bd
00000130: efe9 28bd b6c0 a4bc 6624 09bb 3026 363d
00000140: dfd6 0c3d 880b c73d e02b 04be 8142 e53c
00000150: 4bb7 63bd 4a27 73bc 0fee bebb dba1 f7bb
00000160: eb47 a63d e776 d7bd 05b7 91bc d17e 91bd
00000170: 319a 7fbd 6514 3bbc 4396 b6bd 7aa3 973d
00000180: 48c7 863c de37 94bd 9701 94bc 7233 a53c
00000190: d1fe 63bd 6c1f ab3c c9ad e6bd cc0d e73d
000001a0: 3c77 643c 029c eb3d 6eb0 4e3d 5455 73bc
000001b0: a38a 70bd ee4a e83d d9bb 993d 5eeb d1bd
000001c0: 0857 04be ffe7 b13d e85c f6bd 5454 bf3d
000001d0: 3597 e9bd 076d 02bd 066a ed3c 2729 763d
000001e0: 5942 bfbd 4427 5dbd 110d 9c3d 4c6d cbbd
000001f0: 732c e4bc 09e0 f03d 137e d73c 92f9 af3d
00000200: 259a 333d f442 1b3d 6fe3 6fbc 61a8 c63d
00000210: 064f cf3d df1c f8bd ef76 4abd 07e4 d1bc
00000220: 701a 46bd 4353 00be 70f1 aa3d 215f 5ebd
00000230: 0174 223d 4c1d 633d 4948 b2bd 7467 823d
00000240: 0419 02be 377d 5c3b e2f9 d9bd cc56 eb3d
00000250: 0fab 7dbd 47f5 8abd fad0 e1bd 343f a83c
00000260: ddcb e33d 3808 93bc 19c9 00be 9e56 06be
00000270: 79f8 533d a475 2d3d 4e87 60bd 4557 e63b
00000280: 2285 043e 5f5b b23d 8300 833d 2673 ef3d
00000290: fc10 a03d a94a 8fbd 5045 c2bd 5cd3 d63d
000002a0: c441 803d b9f5 1e3d 4513 b1bd 3f7a 563d
000002b0: 7f88 c4bb f468 953d 9d4a 0abe e6d4 c9bd
000002c0: 959e 1dbb 5316 b13d 9236 c9bd 61ba ffbd
000002d0: 90b4 3a3d 44fc 6c3d c6a5 93bd 54b5 5e3d
000002e0: 7716 a4bd 23c3 4c3c d6ad 63bd b8da de3d
000002f0: d432 0abe ecdc 863d a416 df3d 6dd9 b8bc
00000300: 8f7e e03d 5068 883b f374 95bd 7f0e ae3d
00000310: 9509 21bd ee7f a93d 7584 b33d 63bd d63d
00000320: ece9 853d 8858 85bd 2fd3 debd 1539 e93d
00000330: 54d1 1d3d 6ddf c0bd cc10 e73d 0016 adbd
00000340: 6444 26bd f996 ad3d e8bc a43d 2d3c dc3d
00000350: ea1c d93d 321f 7f3a 82ba 9f3d 03d7 163e
00000360: 107f d3bd 8ef7 043e 514f c7bd 1d22 cd3c
00000370: b6b8 a93d 6058 cbbd 06eb 1ebd 3916 bdbd
00000380: 4b4f 2d3d e4f9 6cbd 8376 2a3d d7c2 a5bc
00000390: 7b37 7cbd 494d fab9 e8d8 ee3d 0665 e23d
000003a0: 0062 62bc 5336 1d3d 5065 403d ed85 84bd
000003b0: 5f03 5d3c d29d 78bd 2705 0abe 8a18 7c3c
000003c0: 46a4 e83d c41f 1d3e 127d 8eb8 05b8 e33d
000003d0: b201 bbbc e670 e53d 6d37 9fbd 6961 ce3c
000003e0: 2800 063b 83bf 173d 4bc8 b03d c468 7abc
000003f0: 9d7d d13d 96a8 f1bc 77eb 043d b5e1 84bd

m_down2.0.res.0.weight f4 [16, 16, 3, 3]
-0.01862016 0.02242656 -0.034056854 -0.03146013 -0.00864206 0.040061746 0.07520552 -0.020390643
-0.011946352 -0.059009656 -0.050305516 -0.013275796 0.027113736 0.01137326 0.014880517 -0.04796397
0.042666897 0.040229276 0.015527596 0.09595676 -0.027220124 0.05326688 0.07789257 0.07434023
-0.011901672 0.05870203 0.062173683 0.07378824 -0.00059810944 0.03380768 0.0802125 -0.03305713
0.10745 -0.033886593 0.03381117 0.10559279 -0.027738897 0.035381734 0.03974343 0.042113114
0.002312988 0.040018212 0.037418872 -0.040481035 0.07333985 -0.064983256 -0.025638567 0.0042625736
0.022311317 -0.03813852 0.019087905 -0.037807718 -0.08109346 -0.056525625 0.03537259 0.017401462
-0.030528186 0.006348898 -0.029663345 -0.030502217 -0.07171623 0.04915645 0.0065790657 0.049647164
-0.033354092 -0.09931208 -0.03662496 -0.085529394 -0.028648892 0.046832662 -0.025104064 0.018691609
-0.032156333 -0.012065349 -0.056105316 -0.07997242 -0.038047947 0.039144248 0.06018853 -0.031770803
0.0341435 0.019114444 0.043665808 -0.008848684 0.043836113 -0.04161569 0.021573741 -0.022404557
0.044727042 0.033906907 -0.05142971 0.037325878 -0.041100908 -0.011508531 -0.01170412 0.024454523
-0.10168025 -0.091024674 -0.021131763 -0.048510894 0.035876963 0.06802048 0.06324846 -0.025376575
0.023015907 0.022587113 0.057113856 -0.05651559 -0.04403668 -0.046103526 0.07705078 -0.0788458
0.0030535602 0.016939394 -0.0654627 -0.025955006 0.020812009 0.008084328 -0.04094254 0.010598898
0.019400042 0.060069893 0.07831592 0.07192028 -0.057050068 0.058775675 0.036804613 0.044381995
0.06615925 -0.0034587618 0.04201904 0.09509122 0.03290876 -0.0063295127 0.111417346 0.061170325
-0.061963014 0.0004637673 0.054806374 -0.03065079 -0.0046452866 -0.060641184 0.042178884 0.046272743
0.07052181 0.04415265 -0.013335887 -0.056472432 -0.038566623 0.03109315 0.0682768 0.0099799065
-0.04496945 -0.030059392 -0.045075126 -0.08212655 0.05730089 0.062686145 -0.011212094 0.05287857
0.057927925 -0.047624096 0.045521807 0.023684617 -0.051769044 0.02379129 0.028329816 -0.0737883
-0.04415316 -0.08167914 0.04931198 0.054042876 -0.024097105 0.022024943 0.01811822 -0.079757586
-0.027316982 0.057800718 -0.07063833 -0.035571497 -0.047128055 -0.041558757 0.04120105 -0.10365087
-0.08471185 -0.020508042 0.08042989 0.068372265 0.055013813 0.086289816 0.026558993 -0.0054222276
0.072538 0.015654447 0.0807436 -0.054615304 -0.009837273 0.100840054 0.030348562 -0.094430484
-0.07021003 0.034797378 0.030548118 0.019287637 -0.0051828995 0.04599123 0.04296757 0.008029599
0.0626668 0.020623706 0.066377304 0.08072312 -0.026881583 -0.0016438349 0.027995655 -0.041578785
0.027726624 0.08030661 0.10564186 0.018992022 -0.058549054 0.04571284 -0.031917952 0.012349195
0.055949505 0.008450902 0.018625455 -0.014405179 -0.06508393 -0.045404688 -0.027877139 -0.01585491
0.052792504 0.038389537 0.019447127 0.028998705 -0.10060798 -0.038650423 0.06977615 0.038290735
-0.0051034912 0.013601267 -0.029541776 0.071507834 0.011297782 -0.07659112 0.09678159 0.046399634
0.07012617 -0.005007384 -0.050616153 0.061743632 -0.1064409 0.060161203 0.03786957 0.027603783
00000000: 4e89 98bc e8b7 b73c 337f 0bbd 56dc 00bd
00000010: 6d97 0dbc c917 243d 5a05 9a3d 470a a7bc
00000020: a2ba 43bc 1cb4 71bd 280d 4ebd b982 59bc
00000030: a01d de3c e956 3a3c 69cd 733c de75 44bd
00000040: 7cc3 2e3d 74c7 243d 7567 7e3c fa84 c43d
00000050: bdfc debc 5f2e 5a3d 2486 9f3d b13f 983d
00000060: 3bff 42bc 8a71 703d d5a9 7e3d 4a1e 973d
00000070: 72ca 1cba ec79 0a3d 7446 a43d ea66 07bd
00000080: bf0e dc3d abcc 0abd 957d 0a3d 0841 d83d
00000090: af3c e3bc 70ec 103d 02ca 223d cd7e 2c3d
000000a0: 8095 173b 23ea 233d 8844 193d 71cf 25bd
000000b0: 3433 963d f115 85bd f907 d2bc 0fad 8b3b
000000c0: 39c6 b63c 2337 1cbd 3d5e 9c3c 44dc 1abd
000000d0: 5414 a6bd 6a87 67bd d9e2 103d 838d 8e3c
000000e0: 3f16 fabc 6b0a d03b 8b00 f3bc c9df f9bc
000000f0: f5df 92bd 4658 493d 3495 d73b d35a 4b3d
00000100: 4d9e 08bd 2264 cbbd 0e04 16bd 092a afbd
00000110: 15b1 eabc 9bd3 3f3d 0aa7 cdbc 251f 993c
00000120: 5cb6 03bd bead 45bc b0ce 65bd 95c8 a3bd
00000130: 2ad8 1bbd b855 203d 3f88 763d 1a22 02bd
00000140: 0eda 0b3d e595 9c3c ebda 323d 12fa 10bc
00000150: 7f8d 333d 3775 2abd 6abb b03c c389 b7bc
00000160: b433 373d f8e1 0a3d f6a7 52bd 05e3 183d
00000170: 6d59 28bd 478e 3cbc a3c2 3fbc da54 c83c
00000180: bc3d d0bd 256b babd 851c adbc 5cb3 46bd
00000190: b9f3 123d 524e 8b3d 6988 813d 89e2 cfbc
000001a0: db8b bc3c 9c08 b93c 38f0 693d e47c 67bd
000001b0: ce5f 34bd 0dd7 3cbd cdcc 9d3d e879 a1bd
000001c0: 3d1e 483b 7cc4 8a3c 4f11 86bd 989f d4bc
000001d0: f27d aa3c 2174 043c 5db3 27bd 00a7 2d3c
000001e0: d6ec 9e3c d90b 763d 1964 a03d f14a 933d
000001f0: 55ad 69bd c3be 703d 6fc0 163d e5c9 353d
00000200: 807e 873d 65ac 62bb 281c 2c3d 30bf c23d
00000210: 56cb 063d cd67 cfbb c72e e43d bc8d 7a3d
00000220: eecc 7dbd cb25 f339 a67c 603d 5e17 fbbc
00000230: 7d37 98bb e462 78bd c4c3 2c3d 7d88 3d3d
00000240: bd6d 903d 69d9 343d c47e 5abc a34f 67bd
00000250: 09f8 1dbd 10b7 fe3c b5d4 8b3d c382 233c
00000260: e331 38bd 1d3f f6bc b2a0 38bd f731 a8bd
00000270: 57b4 6a3d 9861 803d eeb2 37bc 3397 583d
00000280: d545 6d3d 7c11 43bd 1375 3a3d 3e06 c23c
00000290: c70b 54bd f4e5 c23c ee13 e83c 521e 97bd
000002a0: f2d9 34bd 6547 a7bd 5cfb 493d 105c 5d3d
000002b0: 4b67 c5bc a76d b43c a96c 943c f257 a3bd
000002c0: ddc7 dfbc 72c0 6c3d d4aa 90bd 6bb3 11bd
000002d0: 5909 41bd 8439 2abd 6fc2 283d e846 d4bd
000002e0: 687d adbd 7b00 a8bc 6db8 a43d c206 8c3d
000002f0: 2a56 613d b7b8 b03d 3f92 d93c f1ac b1bb
00000300: ce8e 943d c13d 803c e75c a53d 4cb4 5fbd
00000310: 832c 21bc 3b85 ce3d 8c9d f83c c564 c1bd
00000320: 47ca 8fbd b287 0e3d 0c40 fa3c 1b01 9e3c
00000330: 50d5 a9bb 4d61 3c3d c3fe 2f3d 948e 033c
00000340: 7457 803d 0cf3 a83c d3f0 873d 2a52 a53d
00000350: c436 dcbc f275 d7ba 2557 e53c 844e 2abd
00000360: f222 e33c cb77 a43d c25a d83d 2895 9b3c
00000370: 22d1 6fbd 633d 3b3d 66bc 02bd 4754 4a3c
00000380: 4f2b 653d a775 0a3c 6994 983c b303 6cbc
00000390: b94a 85bd 44fa 39bd 995e e4bc 28e2 81bc
000003a0: f43c 583d 593e 1d3d 954f 9f3c b18e ed3c
000003b0: 8e0b cebd e84f 1ebd cce6 8e3d bfd6 1c3d
000003c0: 303b a7bb d9d7 5e3c 9801 f2bc b372 923d
000003d0: 551a 393c cedb 9cbd 6d35 c63d 8b0d 3e3d
000003e0: 4f9e 8f3d fb14 a4bb e252 4fbd e4e6 7c3d
000003f0: b0fd d9bd 986b 763d 1f1d 1b3d 5421 e23c
